Assets/Valerio/Crowd.onnx (onnx, 300860 bytes, 7 tensors)

action_model._continuous_distribution.log_sigma f4 [1, 3]
00000000: 7a6d 0abd d6d4 25bd 175a 0abd
-0.03379581 -0.04048618 -0.033777323

action_model._continuous_distribution.mu.bias f4 [3]
00000000: 0910 c9ba 04f4 34bb a795 ad3b
-0.0015339862 -0.0027611265 0.005297381

action_model._continuous_distribution.mu.weight f4 [3, 256]
00000000: 37a2 96bc d77a 00bd c777 01bc b614 e93c
00000010: 21f6 a93b 8739 653b d8b2 093d 2617 f73c
00000020: 61a0 d63c d4bd f0bc ed93 353d 3e34 933c
00000030: e4b6 b93b c9f2 92bc de39 083d 4436 1b3d
00000040: 0f86 0f3d 4773 adbc 4696 693c b031 1dbd
00000050: 6eef 1c3d a13f 6b3c 53ab 9dbc a91d 2f3c
00000060: 1146 3dbd eecc b3bc ce30 0fbc 9147 963c
00000070: 14fb 00bc ce79 27bd 7e44 bb3b 1082 cebc
00000080: 1fc4 173d c15a b4bc 3e7f bbba e197 0abd
00000090: 3465 953c 50e0 b13c dbff 3dbc 307c df3c
000000a0: b398 ec3b 1e3e 793c 80c1 ee3c 04d6 debc
000000b0: c0e3 753c 4356 5b3c b33f 90bc f2b8 513c
000000c0: 504d 6ebc da7f 203d 4de9 503c 8b03 81bc
000000d0: 662b 5c3d 8e72 2a3d f987 45bd 3373 f83c
000000e0: ac75 d4bb 1bd6 b5bc 05e2 373d e309 a13c
000000f0: f326 bfbc 4fbc 0f3d deac a8bc a18e 7c3b
00000100: 8dc5 c7bc deb0 db3c 0f51 e0bb 7a2e d2bc
00000110: 7ca6 9dbb f04e e93c 1cf5 91bc 0b8a f1bc
00000120: 4bd7 fe3c 69ff 24bd 23cf 90bc 8ea5 ca3b
00000130: f54d 26bd 9271 56bc 5dc0 fc3c d07f 6c3c
00000140: a018 00bd 7b01 04bc c226 053c c281 1c3c
00000150: 2986 f73c caef 103d 3064 433d 8417 bebc
00000160: 8621 2b3c ca4d 4e3d 97c9 af3c d322 003d
00000170: 6912 653c bc36 1e3c 0952 a7bc 6905 dcbc
00000180: 97e8 d33a 8517 30bd 5fcc d8bc c2ac 87bc
00000190: 97bb 803c 28bf 32bc 10b0 903c e0f2 80bd
000001a0: 4f8e 6eba 0f21 213d 8ceb 193b 87fb 38bd
000001b0: a4b0 a7ba b088 c7bc 73e0 083a 3aed b83b
000001c0: 8661 03bc ed62 df3b aa3a 673c 62be 72ba
000001d0: 7749 dabc a5d8 743c e3d1 9d3b 7de7 ac3c
000001e0: 83b9 8ebc 4509 853c 1ebb bdbc 3051 d73b
000001f0: b001 a5bc 9dd6 06bc db1f 1b3d 9dae 853c
00000200: 4b9a 8cbc 592b 35bc 632a 023a 2356 393c
00000210: 2af2 9bbc 511d e3bc fe2e 0a3b e831 34bc
00000220: b252 dcbc 934e 5d3d 444f d73c 9a1f 883b
00000230: d8c3 a1bc e37e 893c e3e1 27bc 9cd0 e23c
00000240: 14cb 8c3c a43b 9c3c bfc4 3a3d 6076 0d3b
00000250: 18ba 513c 8a44 943c 5ef7 a5bb ced7 f5bb
00000260: f54a 0bbc 870f 213c 8710 20bd 3f81 1d3d
00000270: c787 393c 77e5 22bd 5dcd 043d 5887 ce3b
00000280: a331 403d 3421 fb3c b194 b6bc 127a b03c
00000290: e539 223d 9ae5 4dbc 936a f0bc ae65 b33a
000002a0: 5b2b f63b a97a 253d 2151 f4ba 4a89 bdbc
000002b0: dab7 fd3c 8297 babb 9ca7 0f3c 2d40 f53c
000002c0: a568 5b3d 7e93 143d 322d 5c3c 45bb ca3c
000002d0: 6f35 113c f0b4 db3c a9b9 823d 8e23 653b
000002e0: d30d 193c 0d8c 88bc 5c97 333d 23ac 05bb
000002f0: 14f4 a7bc 41d1 5d3b f866 47bd 7a04 a1bc
00000300: 1b34 35bc adce b43c 1272 313d 9c11 673c
00000310: 106c 003d 4a8e 14bd 283f ee3c b0c9 033b
00000320: 7c8c 09b9 090f f73c 8021 89bc 5e1f e3bc
00000330: eeba 003d 350f 453d 80c4 3cbb da1c c23b
00000340: fd24 48bc cbbc eb3c 594e 2abd 39bf 33bc
00000350: e827 ea3b e647 04bb 7064 abbc 904a b4ba
00000360: 55cd ba3a 7d9f fd3c 66e4 423d 5b34 f63c
00000370: 0966 12ba cda2 043d 89c6 28bd b91c 953b
00000380: 520a 0d3d ae53 ea3b 6700 08bd d1c7 bebc
00000390: 1ba0 fe3c 99b9 c8bb fda3 6b3c cc91 23bc
000003a0: 1e1e ce3c beff 50bc b848 b73c 9627 b8bb
000003b0: 1a7b 0ebd 8760 03bd 6385 b93c 4c23 7e3c
000003c0: 78b3 183d 63ae 51bc 4adb 133d a61e 4bbc
000003d0: ff60 15bd 147b 083c c1d0 053d 6210 083d
000003e0: b53e abbc 5b02 19bd 0b34 08bc 1904 b338
000003f0: 597f 68bd 07e5 72bc 0a57 c3b8 7efc 93bc
-0.018387897 -0.03136715 -0.007902092 0.028452259 0.0051868116 0.0034976916 0.033617824 0.030162405
0.026199521 -0.029387392 0.044330526 0.017969247 0.005667554 -0.017938035 0.03325831 0.03789355
0.035039958 -0.021173133 0.014257019 -0.038377464 0.038314275 0.014358432 -0.019246733 0.010688224
-0.0462094 -0.021948304 -0.008739663 0.018344672 -0.007872362 -0.040887646 0.005714952 -0.025208503
0.03705227 -0.022015931 -0.0014304889 -0.03383625 0.018236734 0.021713406 -0.011596645 0.027280897
0.0072203516 0.015212564 0.029145002 -0.02720166 0.015007913 0.013387266 -0.0176085 0.012800442
-0.0145448 0.03918443 0.012750936 -0.01574876 0.053752325 0.041613154 -0.048225377 0.030328369
-0.006483754 -0.02219682 0.044893283 0.019658035 -0.023334002 0.035091694 -0.020590242 0.0038537162
-0.024386192 0.026817735 -0.0068456004 -0.025656927 -0.0048111062 0.028480023 -0.017817073 -0.02948477
0.031108519 -0.04028264 -0.017676895 0.0061842864 -0.04060169 -0.013088601 0.030853445 0.01443477
-0.031273484 -0.008056994 0.008126916 0.009552421 0.03021534 0.03538493 0.047702968 -0.023204572
0.010445004 0.050367154 0.02145843 0.03128321 0.01398144 0.009656604 -0.02042486 -0.026858049
0.001616734 -0.04299118 -0.02646464 -0.01656187 0.01571445 -0.010909833 0.017662078 -0.06296325
-0.0009100185 0.039338168 0.0023486344 -0.04516175 -0.0012793732 -0.02435717 0.0005221434 0.005643514
-0.008018857 0.006817213 0.014113108 -0.00092599366 -0.026646359 0.01494423 0.00481628 0.021106476
-0.017422443 0.016239772 -0.023160513 0.0065709576 -0.020142406 -0.008229879 0.037872177 0.016318614
-0.017163416 -0.011057698 0.00049654226 0.0113120405 -0.019036371 -0.02772394 0.0021085138 -0.010998227
-0.026894901 0.054030012 0.026282914 0.004154158 -0.019746706 0.016784137 -0.010246727 0.027687363
0.017186679 0.019071408 0.045597788 0.002158545 0.012800716 0.018099088 -0.005064889 -0.0075025326
-0.008501758 0.009830362 -0.03907826 0.038453337 0.011323876 -0.039769616 0.032422412 0.0063027553
0.046922337 0.03065548 -0.022287698 0.021542583 0.039605994 -0.012566948 -0.029347694 0.0013686919
0.0075124926 0.04040018 -0.0018639901 -0.023136754 0.030971456 -0.0056943307 0.0087679885 0.029937828
0.053566594 0.036273472 0.01343851 0.0247475 0.008862837 0.026819676 0.06383068 0.003496382
0.009341675 -0.016668344 0.04384552 -0.002039679 -0.020502128 0.003384665 -0.048682183 -0.019655455
-0.011059786 0.022071207 0.043321677 0.0141033195 0.031353056 -0.03626851 0.02908285 0.0020109229
-0.00013117673 0.030158537 -0.016739607 -0.027724918 0.03142827 0.048110206 -0.0028803647 0.0059238495
-0.01221585 0.028776547 -0.041578624 -0.010970884 0.0071458705 -0.0020184456 -0.020921916 -0.0013755132
0.0014251868 0.030959839 0.0475811 0.030054262 -0.00055846624 0.03238182 -0.041204963 0.004550543
0.03443367 0.0071510887 -0.03320351 -0.02328864 0.031082204 -0.0061256406 0.01438236 -0.009983491
0.025160845 -0.012756286 0.022373542 -0.0056199534 -0.034785368 -0.032074478 0.022646612 0.015511345
0.03728053 -0.012797925 0.036097802 -0.012397444 -0.036469456 0.008330125 0.032669786 0.03321875
-0.020903924 -0.037355762 -0.008313189 8.5361484e-05 -0.056762073 -0.014825112 -9.314537e-05 -0.018064734

network_body._body_endoder.seq_layers.0.bias f4 [256]
00000000: c3b0 8a3c 95b5 563a 03ed 98bb 2f70 303c
00000010: 6ac3 923b 6693 ff3b fbfe 31bc 9d66 2b3c
00000020: f496 b03c 9882 f23b 2d41 993b 60aa 7e3c
00000030: da74 8b3b 4460 213c 2a23 b53c 9041 8a3c
00000040: 2505 25bc 7940 e33b 17e6 bfbb cf78 2139
00000050: a067 23bc c423 523b 5e8f 8a3b a9fa ac3b
00000060: 618d 9d3b e4cd c83a 39fb 9ebb 62a1 2f39
00000070: 5ca7 c1bb 70be 873c 8690 513c d365 c63b
00000080: 36f5 e43b 5065 cb3b a0fb a63c 44f8 8e3b
00000090: 56bf 1bbc aaf9 063a 68a4 9b3b 8f4e 413c
000000a0: 9aa0 963c 4ec0 303c 8c7d cabb 4a42 433c
000000b0: 839c adb9 b7c2 e4ba 9621 7c3a df9e 0e3c
000000c0: 29d6 b6bb 570d 5dbc 3bb5 dcb9 2d8d 533b
000000d0: f451 1a3c bef1 0a3b 334b a93b bf4c 9bba
000000e0: 68c1 b1ba 46b2 fdba aa05 bd3b 7870 f53c
000000f0: 6101 263c 8d5c 153b 51b5 6dbc b1ec ae3b
00000100: c466 273c 870e 733c daa7 5cbb a29c efbb
00000110: c55d 083b 106f 8d3a 77d4 823a bef6 62bb
00000120: 8135 823b b077 4e3b ff7f e73b 8488 9f3a
00000130: 95e5 333c c368 6cbb f384 dc3c 9f13 693c
00000140: 507a 023b 092c c23c b13d 49bb bbf0 513c
00000150: e0c0 213c 652f 5a3c 713f 09bc 5fde bbba
00000160: 6bf7 4abb a0b2 133c fd46 353c 7d13 38bc
00000170: d4e7 053c 1e28 823c b11e 06bb dfa7 1f3a
00000180: 074f e33b badd a03a 92a7 9a3b b777 3c3c
00000190: 4926 8e3a c369 433c 6e31 6a3c 20d6 833c
000001a0: cbc1 863b 924a 073c 7113 f63c 47e5 563c
000001b0: 793c 523c ebd4 fb3b 05b1 c7ba 3077 49ba
000001c0: a2a4 16bb d244 fabb 979b dd3c 1589 b4bb
000001d0: e7b0 99bb c8bf c93b 0206 22bc 2404 06bc
000001e0: 7d64 5ebb 822d 8fbc 6837 603b e065 033c
000001f0: 5831 113a ed0b 28b9 3588 f23b 3aae 5e3c
00000200: 992f 8939 d8a2 dfbb 8e7f 67bb a988 443c
00000210: f2b4 ae3c 3158 093c b4aa a63a 3261 5c3b
00000220: 1de9 893c f21c 2c3c 91a6 f5b9 24bd c13b
00000230: 9899 9c3b 18da 053b cd3e e43b 62fc 5e3c
00000240: 54d7 5b3c f1e2 5e3c 40ee a63c 0e2e b03b
00000250: 44dc 4f3c a21f 3bba ed63 5a3b 5b83 ca3c
00000260: 213f 21bc 8e08 73bb 0d24 813b 1016 1cbb
00000270: cee3 76bb b976 3f3c 3b5a 783c 51c8 0d3c
00000280: 46d9 d2bb 813d 6b3c 5a7a 163c 9193 e338
00000290: 7307 3fbb 165f 8b39 ea29 743c 7fab 04b9
000002a0: 9cec ad3b 4d99 4d3b 5964 a9bb 35f3 9a3c
000002b0: 318a 0c3c 9991 d03b 98db 203b 94f8 fa3c
000002c0: a775 a63c 1df8 bb3c 4807 4b3c d284 e0bb
000002d0: 74ae 003c 50ea a53c 08e2 35bc da6b 14b9
000002e0: 1fe7 463c bb33 e63c a318 2a3c d64a a8bb
000002f0: 13b2 9a38 0e23 0a3b 8b6f 033c a71d 9939
00000300: 80bd b939 3e5d 8e3b a7ce 853b 7eb4 a33c
00000310: 7f43 333c 3c3f 49bc 3e0c bbbb c880 9b3b
00000320: 77be 3f3b 95b9 723c 8248 163c e314 693b
00000330: c12f 9e3b d10b e33a 2828 753b 6465 c83b
00000340: 7b1d 1d3c 1ec2 333c aacc 2abc abb7 6e3c
00000350: ee15 ed3b 78ca 773c 5d45 7f3a 0cae 853c
00000360: c934 603b 7067 9e3b 3caf 45b9 e2eb 22bb
00000370: eeac 4eba 8bc6 153a 4294 30bc d5b2 f63b
00000380: 8a28 fe3b a34f 083c 3bb8 3a3c 7c46 b6bb
00000390: 79ca 8bbb c334 fe3c 71db f03a d24f 4f3a
000003a0: 7b20 adbb 5d22 22bc a6e1 c43a 9962 f43a
000003b0: 153e 3cbc 8204 dc3b c460 9d3b d8a3 c2bb
000003c0: 1117 84bc 0b31 da3c b885 513c 9d6e e33c
000003d0: 383c d53b dc19 873c 4504 443c 522d 353c
000003e0: 27a0 2fbb 9b0a acbb eef2 0e3c d3e1 bc3b
000003f0: 45f0 c23a ebf4 8c3c f719 fd39 2ca2 403c
0.01692999 0.000819051 -0.004666926 0.010768934 0.0044788616 0.0077995537 -0.010864015 0.010461477
0.021556355 0.007400822 0.004676959 0.01554355 0.004255873 0.009849612 0.022111494 0.016876966
-0.010072027 0.006935176 -0.0058562863 0.00015399161 -0.009973437 0.0032064775 0.0042285165 0.0052789045
0.0048081134 0.0015320149 -0.0048517254 0.0001674942 -0.0059098434 0.0165703 0.012790805 0.006054619
0.0069872392 0.0062071458 0.020383656 0.0043630917 -0.009506067 0.0005148897 0.0047498234 0.011798515
0.018387128 0.0107880365 -0.006179517 0.01191766 -0.00033113742 -0.0017453049 0.0009618042 0.00870487
-0.005579729 -0.01349195 -0.00042096697 0.0032280192 0.009418953 0.0021201218 0.005166435 -0.0011848434
-0.0013561668 -0.0019355498 0.0057684975 0.029960856 0.010132165 0.002279076 -0.014508561 0.0053382744
0.010217372 0.014835007 -0.0033669383 -0.0073123733 0.0020807844 0.0010790545 0.0009981532 -0.0034631933
0.0039736633 0.0031504445 0.007064819 0.0012171422 0.01098003 -0.0036073185 0.026918864 0.014225869
0.001990933 0.023702638 -0.0030706937 0.012813742 0.009872645 0.013316964 -0.008376942 -0.001433324
-0.0030970227 0.0090147555 0.011064288 -0.011235115 0.008172948 0.01588827 -0.002046507 0.00060903834
0.006936911 0.0012273111 0.004719683 0.011503152 0.001084515 0.011927071 0.0142940115 0.016093314
0.0041124574 0.008257525 0.030038567 0.013116187 0.012831801 0.007685294 -0.0015235251 -0.0007685302
-0.0022986312 -0.0076375986 0.02705173 -0.0055095055 -0.004690278 0.0061568953 -0.009889128 -0.008179698
-0.0033934407 -0.017477755 0.0034212712 0.008019894 0.0005538664 -0.00016026171 0.007401491 0.013591344
0.0002616614 -0.0068248324 -0.0035323831 0.011995473 0.021326516 0.008382843 0.0012715668 0.003362727
0.01683479 0.010504948 -0.00046854143 0.00591244 0.004779052 0.0020424183 0.0069654942 0.013609977
0.013418037 0.013603912 0.020377278 0.005376584 0.012686793 -0.00071381975 0.003332372 0.024720838
-0.009841711 -0.0037083956 0.003941065 -0.0023816861 -0.0037672403 0.0116860205 0.015158231 0.008653716
-0.0064345924 0.014357925 0.009184444 0.0001085169 -0.0029148727 0.0002658299 0.014902571 -0.00012652388
0.005307747 0.0031371892 -0.005169433 0.018914798 0.008577869 0.006365013 0.002454495 0.03063611
0.020319773 0.022945458 0.012391873 -0.006851771 0.007854093 0.02025333 -0.011101253 -0.00014154558
0.0121400645 0.028100839 0.01038185 -0.0051358743 7.376461e-05 0.0021078023 0.008022199 0.00029204527
0.00035427138 0.0043446114 0.004083473 0.019983526 0.010941385 -0.012283143 -0.0057082465 0.0047455765
0.0029257813 0.014814754 0.009172561 0.0035565428 0.00482747 0.0017322247 0.0037407968 0.0061156023
0.009589548 0.010971574 -0.010424772 0.014570157 0.0072352802 0.015123956 0.0009737814 0.016318344
0.003421115 0.004834108 -0.00018852664 -0.0024859835 -0.0007884045 0.0005713484 -0.010777535 0.0075286427
0.0077562975 0.008319768 0.011396463 -0.0055626016 -0.00426608 0.031031018 0.0018375946 0.00079083175
-0.005283413 -0.009895888 0.0015020862 0.0018645107 -0.011489411 0.0067144046 0.004802795 -0.005939942
-0.01612428 0.026634714 0.012788229 0.027762705 0.006507423 0.016491823 0.011963909 0.0110581685
-0.002679834 -0.0052502877 0.008724911 0.005764225 0.0014872631 0.01720663 0.00048275266 0.011757415

network_body._body_endoder.seq_layers.0.weight f4 [256, 31]
00000000: 8fa9 2bbe 683b 05be ee05 50be ad80 b83e
00000010: 1194 013e 5610 53be c891 4cbe d047 d6bc
00000020: 08b8 2e3d 28ee f9bd 28dd 093e 3930 a5bd
00000030: 6beb bbbe 9a50 9e3e f458 22be 1412 0c3e
00000040: f307 4abd 6b43 743e 0365 fcbd 5c21 bdbe
00000050: 6870 1f3e 45a1 4e3e 50da 05be 06bc 39be
00000060: 0808 61be 5543 903e 2003 83bd 6446 dbbd
00000070: 3cc3 353e d6a7 32be 5232 8b3d dad9 1fbe
00000080: a6fa 893e 1f9f 8dbb 7ca1 d73d 3cc8 6dbe
00000090: 56ac 5d3e ea7a 1abc 395d 75bd 3c5e 70be
000000a0: 38a7 4abe 9e5e 3e3e f6d9 973d 37ce a13e
000000b0: c8d6 1d3d 94cf 58be d856 43be 1270 39be
000000c0: abf0 c8bd 01aa a03d 9d12 9c3e ef5c 033e
000000d0: 3f57 3a3e 1005 553d e2ae 97be 10b1 5d3d
000000e0: 19f0 0d3e e973 c03d de4a 58be 4c33 65be
000000f0: ac0d 273a 922d 093d ea3f b0be a29c 473e
00000100: 5367 f9bd 2e8d 8ebe 9e2b c43c 33bb 953d
00000110: ff05 f3bc e680 ec3d b526 82be 43e1 a13c
00000120: effc 69bd 06a8 613e 71a0 52bd b902 693d
00000130: e8d7 5cbe 09af b73d 7e1b cfbb 9262 263d
00000140: 5137 c33d c68e c83d d0bc 6c3e 730b c7bd
00000150: 4ae5 a83d 8320 3e3e 4afa 0d3d a047 d93c
00000160: 0bf2 2a3c 806b be3d f099 92bd 8ac7 673e
00000170: a356 123d a3eb b7bd 4973 42be d2e0 593e
00000180: 63df 38be 734b 94be 35d0 86be 8539 a4bc
00000190: 2269 0abe 2c91 08be 7b13 31be d0de 2fbe
000001a0: b2ed 283e 8241 09bd 5c4a 92be 708f 903e
000001b0: 58dd 77be db30 1ebe d745 5ebe 815f 0d3e
000001c0: af62 4d3c e6d1 d53d 5e81 05be 76e8 0c3e
000001d0: 45d9 b6bd 8043 433d 59c9 e93d 74ce b83d
000001e0: 25e2 863e 5910 40bd 0197 5bbe fc29 e03e
000001f0: aafa cc3d 2552 403e 4e58 e6bd 616c 84be
00000200: 51d7 1e3e 0662 a43d b5a6 cabc 7eee 3d3e
00000210: 22fc 363c c42b efbb ede2 24be 28ae d73d
00000220: ac02 ba3d 260f fe3d 8628 223d b779 d5bd
00000230: 244e a53e d3a3 17be c180 2d3e c3a9 0d3e
00000240: df50 e4bc 8abe 59be f087 b6bd 4fc1 cabd
00000250: f26a 37be f510 cd3e baec 4bbe bcc2 4e3e
00000260: 6023 34be 79e2 dcbd 80db 113d 6f4f f4bd
00000270: 214a 16bd 382c 433e 161b 793e ad1e 8fbd
00000280: 93c5 6f3c eee1 ff3d 0132 b83d ed93 843c
00000290: 5896 d0bd 5743 da3d 5023 e33d 6805 9abe
000002a0: 5188 bcbd 1967 20bd 282e 83bd 2fc6 083e
000002b0: f271 0d3e 1371 23be 5dd6 3cbe 35d8 27bf
000002c0: f1e5 6c3e 27cb bb3e 0997 df3d d9a6 5cbe
000002d0: 7419 49be 7d5b 7e3e 5bb0 91bc fc60 073e
000002e0: 12ef e53e 9a62 993d 054d 12bd 8f74 0a3e
000002f0: 3c8c 213d c813 9cbd 587b 353e 1528 293e
00000300: 9b18 b53d ad9a 8abc 5f59 8dbe 8c4e 2bbe
00000310: 4754 69bd b25d 6a3d a54a ae3d d688 1e3e
00000320: b605 de3d 7db9 3c3e 30ce d43d 03a1 e03d
00000330: c821 3abe bf2e 3ebe 4953 043d b0bc a93e
00000340: 7cf1 0ebd ed95 4ebe 99d8 c33c 5047 8fbe
00000350: d2f6 27be 98f0 2e3e 0467 dabd 07ba d9bd
00000360: 921f 983d 1b18 e9bd 7e6f 153e e555 4b3b
00000370: 33d9 403e 6468 0e3d 2343 91bd 250d 0d3d
00000380: 58c6 35be 5eb1 693e 2368 983e 9b46 51be
00000390: 9cb2 003e 5546 25be 8c2b f5bd bc09 683d
000003a0: f60a d8bc ff3f 7f3e 82e5 fc3d 358f 113e
000003b0: 863a a3bd 6b03 ac3d c7d2 9ebe b78f 68bd
000003c0: 57fc 59bb d149 c8bc e7cf e63d b320 313e
000003d0: d127 a43e 1207 1b3e bff4 0cbd 7a15 9cbd
000003e0: 216b fa3a fce3 8c3e 67a8 45be 12f1 afbd
000003f0: 9707 083e 3491 77be 8c28 89bd 5315 77be
-0.167639 -0.13010943 -0.20314762 0.36035672 0.12654139 -0.206117 -0.19977486 -0.02615729
0.042655975 -0.12203628 0.1346327 -0.08065838 -0.36703047 0.3092087 -0.15854245 0.13678771
-0.049323987 0.23853843 -0.12323954 -0.36939514 0.15570223 0.20178707 -0.13071561 -0.18138131
-0.2197572 0.2817637 -0.063970804 -0.10706785 0.17750257 -0.17446837 0.06796707 -0.15610448
0.26949042 -0.004321947 0.105288476 -0.23220915 0.21647772 -0.009428719 -0.059903357 -0.23473448
-0.19790351 0.18590781 0.074146196 0.31602642 0.03853491 -0.21172935 -0.19076097 -0.18109158
-0.09811529 0.07844926 0.3048295 0.1282842 0.18197344 0.05200678 -0.29625612 0.054123938
0.13861121 0.09397108 -0.2112231 -0.2238285 0.00063725817 0.033490725 -0.34423763 0.19493344
-0.12177911 -0.27842087 0.02394658 0.07311096 -0.029665945 0.11548023 -0.25420156 0.019760733
-0.057125982 0.22036752 -0.05142254 0.056887362 -0.21566737 0.08968932 -0.006320416 0.040621348
0.09532035 0.09792857 0.23118901 -0.09718981 0.082468584 0.1856709 0.034662522 0.026523411
0.010433684 0.09297848 -0.071582675 0.22634712 0.035727154 -0.08980491 -0.1898929 0.21277168
-0.18053965 -0.28963813 -0.26330724 -0.020046959 -0.13516667 -0.13336629 -0.17292587 -0.1717484
0.16496924 -0.03350974 -0.28572357 0.28234434 -0.2420553 -0.15448324 -0.2170633 0.13805963
0.012535735 0.104404256 -0.13037631 0.13760552 -0.089281596 0.047671795 0.11415357 0.09023753
0.2634441 -0.04689059 -0.21444322 0.43782032 0.10008748 0.18781336 -0.112473115 -0.25863937
0.15511824 0.08026509 -0.024737695 0.18548009 0.011168512 -0.0072989184 -0.1610219 0.105312645
0.09082541 0.12405233 0.039589427 -0.10423606 0.3228618 -0.14808588 0.16943647 0.1383429
-0.027870594 -0.21264091 -0.08912647 -0.09900152 -0.1791189 0.40052 -0.19914523 0.20191473
-0.1759162 -0.10785384 0.035609722 -0.11929213 -0.03669179 0.19059837 0.24326739 -0.06988273
0.014634508 0.124942645 0.089939125 0.016183818 -0.10184926 0.10657375 0.1109072 -0.3008225
-0.09205688 -0.03916082 -0.06405288 0.13356851 0.13812998 -0.15961103 -0.18441148 -0.6556428
0.2313459 0.3667843 0.109174795 -0.21548022 -0.19638616 0.24839588 -0.017784288 0.1322059
0.4490896 0.0748951 -0.035717983 0.13521026 0.03944038 -0.076209605 0.17722833 0.16519196
0.08842584 -0.016919458 -0.27607247 -0.16729182 -0.05696514 0.05721826 0.08510331 0.15481886
0.10840933 0.18430133 0.1039089 0.109682105 -0.18176949 -0.1857252 0.03230599 0.3315177
-0.034898266 -0.2017438 0.023906993 -0.27984095 -0.16402748 0.17083967 -0.1066418 -0.10631185
0.074278966 -0.11381551 0.14593312 0.003102654 0.18832855 0.034767523 -0.070928834 0.034436364
-0.17751443 0.22821566 0.2976695 -0.2043709 0.12568134 -0.16140111 -0.119711965 0.05664991
-0.026372414 0.24926756 0.12348463 0.14214785 -0.07970147 0.083990894 -0.31020185 -0.056777682
-0.0033261979 -0.02444926 0.11270123 0.1729763 0.32061628 0.15139416 -0.034413096 -0.07621284
0.0019105413 0.27517688 -0.19302522 -0.085909024 0.13284145 -0.24176484 -0.06697187 -0.24129228

network_body._body_endoder.seq_layers.2.bias f4 [256]
00000000: bfc7 04bb 465d be3b 88ae 2f3b b7e9 2b3c
00000010: 4c4c e2bb 038d 853c 7100 8e3a 8e55 0c3c
00000020: 9ae6 3b3b 19ca 923b 5e24 8b39 8fff d33b
00000030: f984 723b 3d6b 333c c34b e83a 5a45 0e3c
00000040: d7e9 0f3b f0e2 523a 0c1d 0f3c f592 7d3b
00000050: e45f 013c 47fb 323c fd55 173c 4b76 813b
00000060: 48d8 d53b 4340 1e3b 671e 22bb 8243 813a
00000070: b86b e93b 70a9 053c 879a 403c 4d79 d63b
00000080: 4c42 063b 8f53 473c 2651 f23b af5f 103b
00000090: e4f6 cf3b d08b 143c cd22 e5bb a97b 1cbb
000000a0: ca00 a23b 6568 193c 370d 01bb bf1e 6a3c
000000b0: d3d9 e2ba 7b47 c03b 7fca 193c 04e7 573c
000000c0: bd5d c53b cb34 4c3c 2974 b4ba d774 a33b
000000d0: 5c34 ec3b fcbe 143c e6d9 b13b 9d47 693a
000000e0: 0efa 6a3b 2465 e73a 1816 4d3c ce23 02bb
000000f0: 2124 183b 2f33 013b 398c 023a 8c44 403b
00000100: 4691 fa3a aa95 c23b e958 6034 f89c df3a
00000110: c419 463a 6357 083b 3859 673a e23e 023c
00000120: a18b bd3b 9824 cd3b 662d c63b 4a2c a9ba
00000130: eabe 513b d413 8f38 bbdf 0d3c 4a48 8a3b
00000140: 752a 4d3b 6929 b23c 05f0 8c3b 1299 b63b
00000150: 65fd aa3b 7156 64ba f210 b83b b51a 033a
00000160: ce4e ce3a 6a2d ec3b 1fc9 89bb 0883 dc3b
00000170: 14fb 6b3c 9db4 633b 2877 293a bf03 453b
00000180: 4a87 123b ecfb ce3b 2934 623b 531f 99bb
00000190: bade 473c 3fa8 8d3b a987 2abb 3673 553c
000001a0: e0fc 873b 3274 3d3c dcd0 893b e488 1c3c
000001b0: c4d4 b43b ed5a 00ba 089b 1cbb 37a8 4fbb
000001c0: 7a9f 51bb 714d 643c 52e7 45bb f86e d4b9
000001d0: 0b59 a03a 4320 63ba 4971 8f3c 1927 533c
000001e0: aaf4 ff3b 9027 5a3c b682 2a3c c7d9 e13a
000001f0: 0e7d ac3a 72fd 993b 6eb1 733b 40d5 763b
00000200: e622 b23b 8846 2e3b b0de f6bb 6b0e ff3b
00000210: beb2 fe3b 9242 43bb 7b5c a43b 08fa bbba
00000220: 771b 573c 6587 ff3b 9890 1bbb c639 80bb
00000230: 39ba 8b3b a45c 693c 4d85 473b 01b7 b3b9
00000240: 38a9 813b 2ec5 80bb 751a 6039 b63a bd3b
00000250: 18b3 1cbb 224c 3dbb 05ba e1bb 1fc7 93bb
00000260: 8bcb 43ba 8536 7bbb 070a 0b3c e0ca cf3a
00000270: ead8 0bbb 2353 823b 1ca4 abba 6b5c 1dbc
00000280: 779f f43b 2a50 523b 8d09 4139 8346 2b3b
00000290: e8b8 e43b 4318 be3b 15a4 b93b be3d 49bb
000002a0: 1bc6 243c ad52 e53b d3c4 e23b 6032 963b
000002b0: 72d5 683b 76dc 033c c6ef 8abb 8e67 233b
000002c0: 7799 0b3c ab27 16bb 8ea6 20bb e6b3 653c
000002d0: 6abe 0d3c 9053 81ba 50fd 7b3c a8d2 94bb
000002e0: 87e1 093c 2953 6a3a f31c 503a ecf4 a8bb
000002f0: a634 4eba b898 f63b e036 043c fba0 923a
00000300: 17c5 643b 9283 09ba 48c6 213c a312 bcb8
00000310: 48bb 3c3a 9b8c 9c3b a407 77ba 6eca 20bb
00000320: 4114 d0bb 747b b63b a8c9 723c e5a2 7f3c
00000330: 0a10 123c b1f1 a93b 9404 f13b e675 e03a
00000340: 35e5 ac3c 1af7 243c e9cf 833c 67a8 c8ba
00000350: 150e 13bb aad1 003c 385f 18bb deb6 80bb
00000360: dfb2 c23b e224 b33b 85cc 253b 00b0 3dba
00000370: 54e3 50b9 de8c c23a bb0d b43b 0ec7 333c
00000380: a4cc 2f3b 46ca 003c 0a08 3839 089c 223b
00000390: cfbf 2f3b 1a74 113c 642a 62bb 976c b23b
000003a0: 0ef2 4d3c 2040 1e3c eff1 5b39 014b f4bb
000003b0: 877d 543b cd14 a13a 501c 2d3b e740 1b3c
000003c0: 030e 573b 8d76 8bba 3b98 763b 6b85 ce3b
000003d0: 3b15 ca3b 0592 243b 7439 053b 480b d63b
000003e0: 5779 aa39 a0a0 e53b d278 59bc e147 05bc
000003f0: 78c2 433c a977 3e3c bbb1 133c ca11 52ba
-0.002026066 0.005809459 0.002680691 0.010492734 -0.006906068 0.016302591 0.0010833872 0.00856532
0.0028671385 0.0044796583 0.00026539242 0.006469674 0.0037005527 0.010950861 0.0017722774 0.008683527
0.0021959448 0.00080446806 0.008734953 0.003869233 0.007896397 0.010924167 0.00923681 0.003950869
0.006526027 0.002414719 -0.002473736 0.0009862038 0.007123437 0.008158073 0.011755592 0.006545222
0.0020486293 0.012165918 0.0073949276 0.0022029688 0.0063465703 0.009066537 -0.006992674 -0.0023877418
0.0049439417 0.0093632685 -0.0019691715 0.014289557 -0.0017307348 0.005867896 0.009386658 0.013177637
0.0060231374 0.012463759 -0.0013767529 0.0049882936 0.00720839 0.009078737 0.005427587 0.0008898916
0.003585461 0.0017654044 0.012517475 -0.0019857767 0.0023214894 0.0019714346 0.0004980001 0.0029337732
0.0019116781 0.0059382515 2.0893971e-07 0.001706033 0.000755694 0.002080404 0.00088252453 0.007949563
0.0057844673 0.006260466 0.0060478924 -0.0012906876 0.0032004663 6.822465e-05 0.0086592985 0.0042200433
0.0031305824 0.021748262 0.0043010735 0.0055724466 0.0052181953 -0.00087103905 0.0056172544 0.0005001233
0.0015740038 0.007207562 -0.0042048837 0.0067294873 0.014403123 0.0034745105 0.0006464594 0.0030062047
0.002235847 0.0063166525 0.0034515953 -0.0046729236 0.012199098 0.004323035 -0.00260208 0.013027957
0.004150018 0.011563348 0.004205806 0.009554122 0.0055185277 -0.00048963615 -0.0023896117 -0.0031685957
-0.0031985925 0.013934479 -0.0030197692 -0.0004051847 0.0012233568 -0.000866417 0.017510073 0.01288774
0.0078111487 0.0133150965 0.0104071405 0.001723104 0.0013159828 0.0046994025 0.0037184614 0.0037663728
0.005436289 0.0026592333 -0.0075338706 0.007783701 0.0077727726 -0.0029794318 0.0050159073 -0.0014341483
0.013129107 0.0077981227 -0.0023737308 -0.003913137 0.004264143 0.014243279 0.0030444444 -0.0003427789
0.00395694 -0.0039297557 0.0002137216 0.005774821 -0.002391046 -0.002888449 -0.0068886303 -0.004509821
-0.000746899 -0.0038332057 0.008486277 0.0015853308 -0.0021339008 0.003977196 -0.0013095173 -0.009604554
0.0074652988 0.0032091239 0.00018409472 0.0026134558 0.0069800504 0.005801232 0.005665312 -0.0030706967
0.010056998 0.006998381 0.006920436 0.004583642 0.0035527614 0.008048167 -0.004240009 0.002493355
0.008520476 -0.0022911828 -0.0024513337 0.014019942 0.008651355 -0.0009866823 0.015380219 -0.0045417137
0.008415586 0.00089387834 0.0007938884 -0.00515615 -0.00078661216 0.0075255297 0.008069724 0.0011186892
0.0034907514 -0.0005245741 0.009873934 -8.96801e-05 0.0007199538 0.0047775037 -0.0009423441 -0.002453472
-0.0063500707 0.005568916 0.014818586 0.015602802 0.008914957 0.0051862826 0.007355282 0.001712498
0.021105388 0.010068679 0.01609035 -0.0015308977 -0.0022438813 0.007862488 -0.0023250114 -0.0039280495
0.0059417333 0.0054670433 0.0025298905 -0.0007236004 -0.00019921112 0.0014843007 0.005494801 0.010972751
0.0026824856 0.007860726 0.00017550602 0.002481224 0.0026817208 0.008877778 -0.003451013 0.005445074
0.012569917 0.009658843 0.00020975595 -0.00745523 0.0032423453 0.0012289524 0.002641458 0.009475923
0.0032814748 -0.0010640189 0.0037627358 0.0063025258 0.0061670817 0.0025111448 0.0020328434 0.0065321065
0.00032515332 0.0070076734 -0.013273435 -0.008134813 0.01194822 0.011625209 0.009014542 -0.0008013515

network_body._body_endoder.seq_layers.2.weight f4 [256, 256]
00000000: a406 213b 44d7 3ebc 04e0 1cbd d677 10be
00000010: d2e5 19be 5332 00bd ad7b 9a3d c8b7 a93c
00000020: 0a17 003d 2853 43bd d11d 383c 2b91 14bd
00000030: 0a6a 32bd 407c 853d 05e9 4fbc 6647 04bd
00000040: 3ffd 32bd ce4c 60bc 5f77 1ebd 0047 a93d
00000050: f208 ce3c ce88 cbbd d800 97bc ea84 a63d
00000060: 21d6 2b3d 6e9d ed3b c08b 2e3d 4a39 dabc
00000070: f770 903d ffee 01bc b893 59bc 520d 4f3d
00000080: e6e6 4abd df41 043e c477 cfbb 3928 bbbc
00000090: 4a37 f2bd 9e70 9ebd 2a94 b33d 12dd 0cbd
000000a0: 52f8 653d 1341 2b3d 8208 053e 4732 74bd
000000b0: 586c 2f3c 482f d4bc 9613 563d 23fb c9bd
000000c0: 8484 d63c 9d8c f5bc 10fb 9dbd 9d59 383e
000000d0: 8fda aabb 683a 253d 74f4 843d 29f9 ef3d
000000e0: 9993 903d 827f a03d 80c6 b5bc ea00 5ebd
000000f0: 6ce8 f83b 3802 35bd 57fc dfbd ec0b 843d
00000100: 9df7 6f3b 958f a5bd 43cd ec3d a496 43bd
00000110: 2cf4 a0bd f7be 013c 2d9c b03d 52ce e6bc
00000120: 7bb9 efbc a9bf e4bc a667 f43d 64de 2dbd
00000130: 2fc3 5dbd c0f1 59bd 0875 0a3c 00ca 6d3d
00000140: 3fb0 05bd 63a3 b9bb fb31 99bd 67c9 10bd
00000150: 7381 39bd 4574 cb3a abab 40bc 0ee4 b3bc
00000160: a813 0abd 9295 41bd 6d0d 57bd e61a 1dbc
00000170: f7fe 5cbd 3925 30bd 0e31 1abb f19b c0bc
00000180: 52c1 0fbe 8e3a 353e 1ee6 9abc 39a3 083c
00000190: 50c8 253c f2e1 1ebd 9730 4d3d 2ae8 2fbb
000001a0: 0afa 383d 8a2a 4bbc d56b 533d f5e9 42bc
000001b0: 3f08 6b3a c269 af3c 6431 07bc e4f2 033c
000001c0: 37e7 e23d 0972 2e3d ebf9 82bc 29ad fd3c
000001d0: f97c a9bc 4467 31bc 0028 de3c 279c 1c3d
000001e0: 31ee 803c f998 aeba 18e5 7abd a3f2 5dbd
000001f0: 1536 5a3d 1a76 e8bb 6a6b bdbd 9d14 67bd
00000200: 1a7b cbbc 74a9 dd3a a3ea 373d 29a6 fabc
00000210: 4bd0 0dbd dd3c 88bd 737d 323d 96df 52bd
00000220: bee1 76bd e679 d3bc 73ee 973c 0bf3 7f3c
00000230: 7096 363d 476d cf3c 9299 703d 313a 8cbc
00000240: 3431 9dbb 3aa1 c93d 7ecc c73d 9898 1ebd
00000250: 279e 57bd 282a 6cbd 365d 32bc 548b 263d
00000260: 4518 1fbd f458 73bd d51b 1e3e d358 fa3d
00000270: 2669 a4bc 329f a9bd 0ede 2d3d 897b cbbc
00000280: f8cd 133d 35f8 cc3c fb8c 20bc a598 333d
00000290: 93b9 8cbc 9a91 fcbd 30b3 6b3d d1e7 28bd
000002a0: 4466 ccbd 1d17 19be d6f7 813d 8dd3 a33d
000002b0: 133b ccbc b260 02bd cbb5 803d 14c6 dabd
000002c0: d908 a53d 9663 da3c 08fa 09be 56a5 1b3e
000002d0: 5119 333d c859 84bd 935b 8a3d 626f 773d
000002e0: 7df7 563d 3158 4abd 82b3 e03c 5b13 bdbd
000002f0: f149 e43d b1f0 6dbd 2d4d ba3c c51b a53d
00000300: ce83 f13d f9cc 163d 6394 9dbd f935 1dbd
00000310: 8730 09bd b7ff ecbc b461 d63d d5ee b5bd
00000320: 24ec acbc a0e2 d4bd 8360 aa3c 3f20 653c
00000330: fceb 09bb 859e 843c bd40 713d 3866 fb3c
00000340: 3597 e43c 8fe5 39bd 7a18 fa3d 7145 11bd
00000350: 9c32 efbc a29a 59bd f9af 84bc 0f3c 0f3e
00000360: 9ac0 72ba 5f4e 973d 4102 f53c ef5c f53c
00000370: 95c5 f9bb 4d95 d33c 0f21 c83c f58c 273a
00000380: c42d b9bc 13a9 063e 6fca 00bd 56d4 9c3d
00000390: 4f43 90bc 5896 c2bd 3ce6 95bc 23a5 b1bd
000003a0: 7a67 cb3d 6d0e 0a3c d1b5 1d3d bd8e 333d
000003b0: 85d0 ab3d 18d6 acbd 2c3d 023d f6e6 cabc
000003c0: 2b65 983b f73d ac3d ba5e abbd 2289 80bd
000003d0: 7900 013d d747 12bd 8f12 083e a3e0 9b3d
000003e0: 5f1e 1cbd 7da6 4fbd 802f f83d a134 3e3d
000003f0: 334c b5bd fb20 933d 7600 82bd 1532 bcbd
0.0024570609 -0.011648003 -0.038299575 -0.14108214 -0.15029076 -0.031297993 0.075431205 0.020717517
0.03127197 -0.047686726 0.011237578 -0.036271255 -0.043558158 0.065178394 -0.0126898335 -0.032294653
-0.043698546 -0.013690187 -0.03868806 0.08265495 0.02515075 -0.09938203 -0.01843302 0.0813082
0.041952256 0.007251433 0.042613745 -0.026638646 0.07052796 -0.007930516 -0.013279848 0.050549813
-0.04953661 0.12915753 -0.006331416 -0.022846328 -0.11826952 -0.07736324 0.087684944 -0.034390517
0.05614502 0.041810106 0.12991527 -0.05961826 0.0107069835 -0.025901452 0.052264772 -0.09862354
0.026186235 -0.029974276 -0.07713902 0.18002935 -0.0052140425 0.040338904 0.06491938 0.117174454
0.07059402 0.0783682 -0.022189379 -0.05420009 0.007596066 -0.04419157 -0.10936802 0.064475864
0.0036616095 -0.08084027 0.11562588 -0.047751084 -0.07859072 0.007919065 0.08623538 -0.028174553
-0.029263249 -0.027923422 0.11933832 -0.042448416 -0.05414122 -0.053209066 0.008450754 0.05805397
-0.032638784 -0.005665229 -0.07480236 -0.035348322 -0.045289468 0.0015522322 -0.011759679 -0.02195933
-0.033710152 -0.047261782 -0.05250304 -0.009588933 -0.05395409 -0.04300425 -0.0023527774 -0.023511859
-0.1403859 0.17698118 -0.018908557 0.008339697 0.010118559 -0.038789697 0.050095167 -0.0026841261
0.04516033 -0.012400279 0.05161651 -0.0118966 0.00089657673 0.021412734 -0.008251522 0.008053515
0.11079257 0.04258922 -0.01598831 0.030966358 -0.020689474 -0.010827843 0.027118683 0.038234856
0.015738579 -0.0013320736 -0.061253637 -0.054186475 0.053274233 -0.007094157 -0.09249003 -0.056416143
-0.024838973 0.0016911463 0.0449015 -0.03059681 -0.03462247 -0.06652234 0.04357667 -0.05148276
-0.06027388 -0.025814962 0.018546319 0.015621911 0.044577062 0.025320662 0.058740206 -0.017117592
-0.0047971252 0.09845205 0.09755801 -0.038719743 -0.05264106 -0.05765739 -0.010886481 0.040660217
-0.038841505 -0.059411004 0.15440305 0.12223973 -0.02006967 -0.08282317 0.042448096 -0.02483918
0.0360851 0.025020698 -0.009799237 0.043846745 -0.017178332 -0.12332459 0.057543933 -0.041236702
-0.09980443 -0.14950223 0.06346099 0.079993345 -0.024930513 -0.031830497 0.06284674 -0.10682312
0.08058328 0.026658814 -0.13474286 0.1519979 0.043725315 -0.06462437 0.06755748 0.060408957
0.052482117 -0.049400512 0.027429346 -0.092322074 0.11146916 -0.05809087 0.022741878 0.08061937
0.11792718 0.03681657 -0.07694318 -0.03838155 -0.033493545 -0.028930528 0.10467854 -0.08883444
-0.021108694 -0.10394788 0.020797973 0.013984739 -0.0021045199 0.01618887 0.05889963 0.03068839
0.027904132 -0.04538494 0.122117 -0.035466615 -0.029198937 -0.053125985 -0.016197192 0.13987754
-0.0009260267 0.07387995 0.029908301 0.02995154 -0.0076224306 0.025828028 0.024429826 0.00063915487
-0.02260483 0.13150434 -0.031443056 0.07657687 -0.01761022 -0.09501332 -0.01829826 -0.086740755
0.09931846 0.008426291 0.03850347 0.043837298 0.08389381 -0.08439273 0.03179662 -0.024768334
0.004650732 0.08410256 -0.08367677 -0.06276156 0.03149459 -0.035713043 0.1328833 0.076112054
-0.0381149 -0.050695885 0.12118435 0.04643691 -0.088524245 0.07184025 -0.06347744 -0.0918924
